Harun_Eker__Initial_Homework1/mlp_model.pth (torch, 3232 bytes, 4 tensors)

weight f4 [4, 5]
000000 6e c7 9a be ba 1a 49 3d c6 25 d4 be d0 83 36 3d
       -0.30230278 0.049097754 -0.4143507 0.0445593
000010 81 2e 05 bd dc 97 83 3d eb af 01 3f 43 e3 14 3f
       -0.032515053 0.06425449 0.50659055 0.58159274
000020 25 72 5b 3f 7c 42 b1 3c 43 7f bf be 9a 1f 39 3e
       0.85721046 0.021638148 -0.3740178 0.18078461
000030 a3 89 8a 3e fc af f8 3b f4 cf ca be ae 2c a8 3d
       0.27058133 0.0075893383 -0.3961178 0.08211647
000040 01 33 78 be d1 04 eb bd 9d 10 a9 be bf 7d 4d 3d
       -0.24238206 -0.11475528 -0.33020487 0.05016875

bias f4 [4]
000000 ac d4 9c be 49 24 af 3e e0 89 b3 be 11 da cb be
       -0.30631006 0.3420737 -0.35066128 -0.3981481

weight f4 [2, 4]
000000 40 41 19 bc 11 81 0a 3d 34 1b d4 be 91 9b 67 be
       -0.009353936 0.033814494 -0.41427004 -0.22617938
000010 e4 21 c4 3e de e7 39 3f f4 2c be 3e df 56 ae be
       0.38307106 0.72619426 0.37143672 -0.34050652

bias f4 [2]
000000 eb 6c 15 3f 66 ca 15 bf
       0.5836932 -0.5851196
