hw1_1.pt (torch, 3200 bytes, 4 tensors)

weight f4 [4, 5]
-0.3216878 0.6809001 0.07336659 -0.0011274291 -0.045325737 0.21821505 0.50662553 -0.37803465
-0.093192965 0.7234252 0.64423096 -0.13071409 -0.09559274 0.74033934 -0.7933416 -0.4152836
-0.016666189 0.17062868 -0.060743228 -0.22488885
00000000: 43b4 a4be 784f 2e3f 3941 963d 3ec6 93ba
00000010: 7ba7 39bd c473 5f3e 36b2 013f c28d c1be
00000020: f4db bebd 6532 393f 52ec 243f ead9 05be
00000030: 20c6 c3bd e186 3d3f 6f18 4bbf 0da0 d4be
00000040: 8887 88bc 49b9 2e3e e4cd 78bd 4349 66be

bias f4 [4]
0.36715817 -0.12979813 0.14853162 -0.2960628
00000000: 28fc bb3e cde9 04be ac18 183e 8b95 97be

weight f4 [2, 4]
0.52657175 0.6435982 0.35387513 -0.20818323 0.20723937 -0.34728712 0.31547087 0.16232008
00000000: 68cd 063f dac2 243f 1f2f b53e fc2d 55be
00000010: 8f36 543e 9ecf b1be 6685 a13e 3c37 263e

bias f4 [2]
0.074911386 -0.10306337
00000000: 246b 993d e312 d3bd
